…
Loading checkpoint shards: 100%|â–ˆâ–ˆâ–ˆâ–ˆâ–ˆâ–ˆâ–ˆâ–ˆâ–ˆâ–ˆ| 4/4 [00:06<00:00,  1.59s/it]Loading checkpoint shards: 100%|â–ˆâ–ˆâ–ˆâ–ˆâ–ˆâ–ˆâ–ˆâ–ˆâ–ˆâ–ˆ| 4/4 [00:06<00:00,  1.63s/it]
Some weights of RewardModel were not initialized from the model checkpoint at /root/autodl-fs/modelscope/Qwen2.5-7B-Instruct and are newly initialized: ['score.weight']
You should probably TRAIN this model on a down-stream task to be able to use it for predictions and inference.
INFO 03-06 02:12:13 model.py:149] initialize value_head for ZeRO-3 reward model training.
INFO 03-06 02:12:13 model.py:149] initialize value_head for ZeRO-3 reward model training.
PeftModel(
  (base_model): LoraModel(
    (model): RewardModel(
      (model): Qwen2Model(
        (embed_tokens): Embedding(152064, 3584)
        (layers): ModuleList(
          (0-27): 28 x Qwen2DecoderLayer(
            (self_attn): Qwen2Attention(
              (q_proj): lora.Linear(
                (base_layer): Linear(in_features=3584, out_features=3584, bias=True)
                (lora_dropout): ModuleDict(
                  (default): Dropout(p=0.05, inplace=False)
                )
                (lora_A): ModuleDict(
                  (default): Linear(in_features=3584, out_features=4, bias=False)
                )
                (lora_B): ModuleDict(
                  (default): Linear(in_features=4, out_features=3584, bias=False)
                )
                (lora_embedding_A): ParameterDict()
                (lora_embedding_B): ParameterDict()
                (lora_magnitude_vector): ModuleDict()
              )
              (k_proj): lora.Linear(
                (base_layer): Linear(in_features=3584, out_features=512, bias=True)
                (lora_dropout): ModuleDict(
                  (default): Dropout(p=0.05, inplace=False)
                )
                (lora_A): ModuleDict(
                  (default): Linear(in_features=3584, out_features=4, bias=False)
                )
                (lora_B): ModuleDict(
                  (default): Linear(in_features=4, out_features=512, bias=False)
                )
                (lora_embedding_A): ParameterDict()
                (lora_embedding_B): ParameterDict()
                (lora_magnitude_vector): ModuleDict()
              )
              (v_proj): lora.Linear(
                (base_layer): Linear(in_features=3584, out_features=512, bias=True)
                (lora_dropout): ModuleDict(
                  (default): Dropout(p=0.05, inplace=False)
                )
                (lora_A): ModuleDict(
                  (default): Linear(in_features=3584, out_features=4, bias=False)
                )
                (lora_B): ModuleDict(
                  (default): Linear(in_features=4, out_features=512, bias=False)
                )
                (lora_embedding_A): ParameterDict()
                (lora_embedding_B): ParameterDict()
                (lora_magnitude_vector): ModuleDict()
              )
              (o_proj): lora.Linear(
                (base_layer): Linear(in_features=3584, out_features=3584, bias=False)
                (lora_dropout): ModuleDict(
                  (default): Dropout(p=0.05, inplace=False)
                )
                (lora_A): ModuleDict(
                  (default): Linear(in_features=3584, out_features=4, bias=False)
                )
                (lora_B): ModuleDict(
                  (default): Linear(in_features=4, out_features=3584, bias=False)
                )
                (lora_embedding_A): ParameterDict()
                (lora_embedding_B): ParameterDict()
                (lora_magnitude_vector): ModuleDict()
              )
            )
            (mlp): Qwen2MLP(
              (gate_proj): Linear(in_features=3584, out_features=18944, bias=False)
              (up_proj): Linear(in_features=3584, out_features=18944, bias=False)
              (down_proj): Linear(in_features=18944, out_features=3584, bias=False)
              (act_fn): SiLU()
            )
            (input_layernorm): Qwen2RMSNorm((0,), eps=1e-06)
            (post_attention_layernorm): Qwen2RMSNorm((0,), eps=1e-06)
          )
        )
        (norm): Qwen2RMSNorm((0,), eps=1e-06)
        (rotary_emb): Qwen2RotaryEmbedding()
      )
      (score): Linear(in_features=3584, out_features=1, bias=False)
    )
  )
)
Using /root/.cache/torch_extensions/py311_cu124 as PyTorch extensions root...
Emitting ninja build file /root/.cache/torch_extensions/py311_cu124/cpu_adam/build.ninja...
Building extension module cpu_adam...
Allowing ninja to set a default number of workers... (overridable by setting the environment variable MAX_JOBS=N)
ninja: no work to do.
…
